…
        "\n",
        "model.add(Flatten())\n",
        "model.add(Dense(num_class, activation='softmax'))\n",
        "\n",
        "model.summary()"
      ],
      "execution_count": null,
      "outputs": [
        {
          "output_type": "stream",
          "text": [
            "Model: \"sequential_2\"\n",
            "_________________________________________________________________\n",
            "Layer (type)                 Output Shape              Param #   \n",
            "=================================================================\n",
            "rescaling_2 (Rescaling)      (None, 224, 224, 3)       0         \n",
            "_________________________________________________________________\n",
            "conv2d_12 (Conv2D)           (None, 224, 224, 64)      4864      \n",
            "_________________________________________________________________\n",
            "dropout_2 (Dropout)          (None, 224, 224, 64)      0         \n",
            "_________________________________________________________________\n",
            "conv2d_13 (Conv2D)           (None, 224, 224, 64)      102464    \n",
            "_________________________________________________________________\n",
            "batch_normalization_6 (Batch (None, 224, 224, 64)      256       \n",
            "_________________________________________________________________\n",
            "max_pooling2d_6 (MaxPooling2 (None, 112, 112, 64)      0         \n",
            "_________________________________________________________________\n",
            "conv2d_14 (Conv2D)           (None, 112, 112, 128)     204928    \n",
            "_________________________________________________________________\n",
            "conv2d_15 (Conv2D)           (None, 112, 112, 128)     409728    \n",
            "_________________________________________________________________\n",
            "batch_normalization_7 (Batch (None, 112, 112, 128)     512       \n",
            "_________________________________________________________________\n",
            "max_pooling2d_7 (MaxPooling2 (None, 56, 56, 128)       0         \n",
            "_________________________________________________________________\n",
            "conv2d_16 (Conv2D)           (None, 56, 56, 256)       295168    \n",
            "_________________________________________________________________\n",
            "conv2d_17 (Conv2D)           (None, 56, 56, 256)       590080    \n",
            "_________________________________________________________________\n",
            "batch_normalization_8 (Batch (None, 56, 56, 256)       1024      \n",
            "_________________________________________________________________\n",
            "max_pooling2d_8 (MaxPooling2 (None, 28, 28, 256)       0         \n",
            "_________________________________________________________________\n",
            "flatten_2 (Flatten)          (None, 200704)            0         \n",
            "_________________________________________________________________\n",
            "dense_2 (Dense)              (None, 7)                 1404935   \n",
            "=================================================================\n",
            "Total params: 3,013,959\n",
            "Trainable params: 3,013,063\n",
            "Non-trainable params: 896\n",
            "_________________________________________________________________\n"
          ],
          "name": "stdout"
        }
      ]
    },
    {
      "cell_type": "code",
      "metadata": {
…
